…
"https://localhost:8080/"},"id":"s0NxuVOUutiu","executionInfo":{"status":"ok","timestamp":1669706604575,"user_tz":-420,"elapsed":51,"user":{"displayName":"Fanny F","userId":"11831095778884674749"}},"outputId":"62df3b50-a141-483d-bc0f-2d8f5e91a913"},"execution_count":null,"outputs":[{"output_type":"stream","name":"stdout","text":["Model: \"sequential_30\"\n","_________________________________________________________________\n"," Layer (type)                Output Shape              Param #   \n","=================================================================\n"," conv1d_29 (Conv1D)          (None, 1, 64)             1856      \n","                                                                 \n"," max_pooling1d_27 (MaxPoolin  (None, 1, 64)            0         \n"," g1D)                                                            \n","                                                                 \n"," dropout_81 (Dropout)        (None, 1, 64)             0         \n","                                                                 \n"," flatten_27 (Flatten)        (None, 64)                0         \n","                                                                 \n"," dense_81 (Dense)            (None, 64)                4160      \n","                                                                 \n"," dropout_82 (Dropout)        (None, 64)                0         \n","                                                                 \n"," dense_82 (Dense)            (None, 64)                4160      \n","                                                                 \n"," dropout_83 (Dropout)        (None, 64)                0         \n","                                                                 \n"," dense_83 (Dense)            (None, 1)                 65        \n","                                                                 \n","=================================================================\n","Total params: 10,241\n","Trainable params: 10,241\n","Non-trainable params: 0\n","_________________________________________________________________\n"]}]},{"cell_type":"code","source":["#fit network\n","start = time.time()\n","history = model.fit(
…
