…
":"https://localhost:8080/"},"id":"dzFUkEjD05vJ","executionInfo":{"status":"ok","timestamp":1671595166464,"user_tz":-420,"elapsed":6,"user":{"displayName":"Fanny F","userId":"11831095778884674749"}},"outputId":"ee3ded78-4aaf-4103-9545-36b512a84452"},"execution_count":null,"outputs":[{"output_type":"stream","name":"stdout","text":["Model: \"sequential_1\"\n","_________________________________________________________________\n","Layer (type)                 Output Shape              Param #   \n","=================================================================\n","lstm_4 (LSTM)                (None, 1, 32)             4352      \n","_________________________________________________________________\n","dropout_4 (Dropout)          (None, 1, 32)             0         \n","_________________________________________________________________\n","lstm_5 (LSTM)                (None, 1, 64)             24832     \n","_________________________________________________________________\n","dropout_5 (Dropout)          (None, 1, 64)             0         \n","_________________________________________________________________\n","lstm_6 (LSTM)                (None, 1, 64)             33024     \n","_________________________________________________________________\n","dropout_6 (Dropout)          (None, 1, 64)             0         \n","_________________________________________________________________\n","lstm_7 (LSTM)                (None, 64)                33024     \n","_________________________________________________________________\n","dropout_7 (Dropout)          (None, 64)                0         \n","_________________________________________________________________\n","dense_1 (Dense)              (None, 1)                 65        \n","=================================================================\n","Total params: 95,297\n","Trainable params: 95,297\n","Non-trainable params: 0\n","_________________________________________________________________\n"]}]},{"cell_type":"code","source":["#fit network\n","start = time.time()\n","history = model.fit(train_X, train_y, epochs=100, batch_size=128, validation_data=(test_X,
…
